models/tflite_models/tflite_model.tflite (tflite, 25080 bytes, 12 tensors)

dense/MatMul_bias f4 [20]
0	0x3d504278	0.05084464
1	0x3d1b435d	0.03790604
2	0xbd29e8af	-0.04148167
3	0xbd3b3182	-0.04570151
4	0x3b42389c	0.0029635793
5	0xbe076715	-0.13222916
6	0x3d9ced0e	0.07662402
7	0xbb5dacb4	-0.0033824863
8	0xbdd50980	-0.104022026
9	0xbd404415	-0.046939928
10	0xbd9c415b	-0.07629653
11	0xbdb6072f	-0.08888089
12	0xbd1d25a4	-0.038365975
13	0xbdac8a9e	-0.08424877
14	0x3d1c30ed	0.038132597
15	0xbda4ffc6	-0.080565974
16	0x3cc32250	0.023820072
17	0xbdddce29	-0.108303376
18	0x3d63626a	0.055513777
19	0x3c9fc9d0	0.019505411

dense/kernel/transpose f4 [20, 3]
0	0x3e87b843	0.26507768
1	0xbec572d3	-0.38564166
2	0xbe85e527	-0.26151392
3	0xbeb07b80	-0.34469223
4	0xbedcda55	-0.43135324
5	0xbeeb9eeb	-0.46019682
6	0xbecd84c7	-0.40140364
7	0x3e682b2a	0.22672716
8	0xbedf894a	-0.4365943
9	0x3e9a7c70	0.30173063
10	0x3e3c819a	0.18408814
11	0x3dcc5a2b	0.09978136
12	0xbebf78d3	-0.3739687
13	0xbd18fb2a	-0.037348904
14	0xbcb9b588	-0.022669569
15	0x3ebe0af8	0.37117743
16	0xbeda6e6c	-0.4266237
17	0x3f01988a	0.5062338
18	0xbf04ad47	-0.518269
19	0x3c28bd20	0.010298997
20	0x3e0a4123	0.1350141
21	0x3ecfc7a9	0.40582016
22	0xbeb17502	-0.34659582
23	0x3e2188dd	0.15774865
24	0x3ed6e97c	0.4197501
25	0x3e929cd8	0.28635287
26	0xbec11a70	-0.37715483
27	0x3eba9487	0.36441442
28	0x3ef45b01	0.4772568
29	0xbefc28ab	-0.49249777
30	0x3b624865	0.0034528014
31	0xbe85f7da	-0.26165658
32	0xbeab3d5e	-0.33445257
33	0xbe870a55	-0.2637507
34	0xbea661b0	-0.32496405
35	0x3edc4f82	0.4302941
36	0x3e6f32e9	0.23359264
37	0x3e7f71b8	0.24945724
38	0xbe15d505	-0.14632042
39	0xbdcfe5ae	-0.1015123
40	0xbe17d312	-0.1482661
41	0x3ea6ee63	0.3260375
42	0xbd1250ef	-0.035721716
43	0x3e6ee752	0.23330429
44	0x3e440a2e	0.19144508
45	0x3eb0b14b	0.34510264
46	0xbe59884b	-0.21243398
47	0x3eb33c31	0.3500686
48	0x3d0bc3ba	0.034122206
49	0x3ebd68bc	0.36993968
50	0x3e73cb79	0.23808087
51	0x3d83000f	0.063964956
52	0xbec351ef	-0.38148448
53	0x3eae5b48	0.34054017
54	0x3ed04d76	0.40684098
55	0x3a663f0a	0.0008783197
56	0xbcd7ebc6	-0.026357543
57	0xbe0559ee	-0.13022587
58	0x3ea3cdee	0.3199305
59	0x3e8fea78	0.28108573

dense_1/MatMul_bias f4 [100]
0	0x3cb38130	0.021912187
1	0xbd52a13f	-0.051423308
2	0x3d5e9b5a	0.054347374
3	0x3d241d34	0.040066913
4	0x3b156a02	0.0022798781
5	0xbdbd52db	-0.09244319
6	0xbcb24391	-0.021760734
7	0x3d9d3226	0.07675581
8	0x3b33402b	0.002735148
9	0xbd5a4161	-0.053285006
10	0xbd27558a	-0.04085306
11	0x00000000	0.0
12	0xbc3e8100	-0.011627436
13	0x3d08f592	0.03343732
14	0xbcc29513	-0.023752725
15	0x00000000	0.0
16	0x3d974346	0.07385878
17	0x3d4febe9	0.05076209
18	0xbc2dd1d5	-0.01060911
19	0x3d6cec41	0.057842497
20	0xbd2296f0	-0.039694726
21	0xbc8aa185	-0.016922722
22	0xbd85da0d	-0.065357305
23	0x00000000	0.0
24	0x3cb5592b	0.022137245
25	0x3d289020	0.041153073
26	0xbd25ffbf	-0.0405271
27	0xbd5e56a3	-0.054281842
28	0xbcae4958	-0.021275207
29	0xbd7c01ef	-0.06152528
30	0xbda910d6	-0.08255164
31	0xbd15cb48	-0.036570817
32	0xbcdcf0cc	-0.02697029
33	0x3c089322	0.00833586
34	0x3d4874e7	0.04893961
35	0xbd038656	-0.032110535
36	0xbcffbb9c	-0.031217389
37	0xbc2574b4	-0.010098625
38	0xbc8c99a9	-0.017163115
39	0xbb90c547	-0.0044180485
40	0xbdd38fbc	-0.103301495
41	0xbdeb80b0	-0.114991546
42	0xbda4f98e	-0.08055411
43	0x00000000	0.0
44	0x00000000	0.0
45	0xbd0fbf9d	-0.035094846
46	0x3c159ab4	0.009131122
47	0x3c77200c	0.015083324
48	0xbcb9c095	-0.022674838
49	0xbc6ff5f4	-0.014646042
50	0xbd169db3	-0.036771487
51	0xbd824726	-0.06361227
52	0xbd1eaa25	-0.03873648
53	0xbb3fd3cf	-0.0029270535
54	0xbb9aed55	-0.004727999
55	0xbde4103e	-0.111359105
56	0xbd85688e	-0.06514083
57	0xbd172413	-0.036899637
58	0xbcc47bbd	-0.023984784
59	0xbcc234da	-0.023706842
60	0x3cbec070	0.02328512
61	0x3bd75389	0.0065712375
62	0x00000000	0.0
63	0xbcca2042	-0.024673585
64	0xbd07d802	-0.033164985
65	0xbb77f530	-0.0037835352
66	0xbdac1f8c	-0.084044546
67	0x3d8128ed	0.06306634
68	0xbde2e5f2	-0.11079015
69	0x3d915eff	0.07098197
70	0x3cf007df	0.029300628
71	0x3c92a150	0.017899185
72	0x3bc9e766	0.006161618
73	0x3d6951ec	0.056962892
74	0xbdb25fa7	-0.087096505
75	0x3c9d262b	0.019183239
76	0xbc425147	-0.011860198
77	0x00000000	0.0
78	0x3c03a415	0.008034726
79	0x3d1545d2	0.03644354
80	0xbd957df8	-0.07299417
81	0xbda5280e	-0.080642805
82	0xbc61c34a	-0.013779471
83	0xbbcbed55	-0.0062233605
84	0xbca32c10	-0.019918472
85	0xbb3a7d26	-0.0028455942
86	0xbce1c329	-0.02755888
87	0xbd55a032	-0.052154727
88	0x3d9ccf74	0.07656756
89	0xbdbe49fd	-0.09291456
90	0xbbbd7e72	-0.0057828957
91	0x3d249de6	0.040189646
92	0xbc19fce8	-0.009398676
93	0xbd7fbc7f	-0.062435623
94	0xbce1a426	-0.027544092
95	0x00000000	0.0
96	0xbc5d04b1	-0.013489888
97	0xbd26d11a	-0.04072676
98	0x3d3ff89a	0.046867944
99	0xbd0d39b8	-0.034478873

dense_1/kernel/transpose i1 [100, 20] scale=0.0025388817 zero_point=0
0	0x36	0.13709961
1	0x4e	0.19803278
2	0xd6	-0.10663303
3	0x53	0.21072719
4	0xb6	-0.18787725
5	0xe3	-0.07362757
6	0x4e	0.19803278
7	0x3a	0.14725514
8	0xd4	-0.111710794
9	0xce	-0.12694408
10	0xd7	-0.10409415
11	0xa2	-0.23865488
12	0x4b	0.19041613
13	0x21	0.0837831
14	0xee	-0.045699872
15	0x3d	0.15487179
16	0xbb	-0.17518283
17	0x4c	0.19295502
18	0x39	0.14471626
19	0xa7	-0.22596048
20	0xb7	-0.18533836
21	0xbc	-0.17264396
22	0x15	0.053316515
23	0x37	0.1396385
24	0xcb	-0.13456073
25	0xfe	-0.0050777635
26	0xd0	-0.12186632
27	0x23	0.08886086
28	0x3c	0.1523329
29	0xaa	-0.21834382
30	0xfa	-0.01523329
31	0x40	0.16248843
32	0x1a	0.06601092
33	0xa9	-0.22088271
34	0xb9	-0.1802606
35	0x08	0.020311054
36	0x50	0.20311055
37	0xc2	-0.15741067
38	0x08	0.020311054
39	0x0f	0.038083225
40	0x36	0.13709961
41	0x20	0.081244215
42	0xdb	-0.09393863
43	0xf9	-0.017772172
44	0xc8	-0.14217737
45	0x1a	0.06601092
46	0x29	0.10409415
47	0xa7	-0.22596048
48	0x25	0.09393863
49	0x9f	-0.24627152
50	0xaf	-0.20564942
51	0xf5	-0.027927699
52	0xdb	-0.09393863
53	0x3d	0.15487179
54	0xb8	-0.18279949
55	0x3b	0.14979403
56	0xf0	-0.040622108
57	0x1e	0.07616645
58	0x47	0.1802606
59	0xdf	-0.0837831
60	0x5d	0.236116
61	0xe9	-0.05839428
62	0xdc	-0.091399744
63	0xe0	-0.081244215
64	0x56	0.21834382
65	0x43	0.17010507
66	0x63	0.2513493
67	0xb5	-0.19041613
68	0xd5	-0.10917191
69	0xcf	-0.124405205
70	0x37	0.1396385
71	0xc1	-0.15994956
72	0x18	0.06093316
73	0x2e	0.11678856
74	0xd2	-0.11678856
75	0xf8	-0.020311054
76	0xba	-0.17772172
77	0xcd	-0.12948297
78	0x39	0.14471626
79	0x40	0.16248843
80	0xdb	-0.09393863
81	0x08	0.020311054
82	0xfa	-0.01523329
83	0xab	-0.21580495
84	0x2c	0.111710794
85	0x4f	0.20057166
86	0x07	0.017772172
87	0xcf	-0.124405205
88	0xf8	-0.020311054
89	0x39	0.14471626
90	0x11	0.04316099
91	0xc2	-0.15741067
92	0xeb	-0.053316515
93	0x15	0.053316515
94	0xcf	-0.124405205
95	0x21	0.0837831
96	0x2a	0.10663303
97	0xaa	-0.21834382
98	0xc9	-0.1396385
99	0xc7	-0.14471626
100	0xbe	-0.1675662
101	0x34	0.13202184
102	0xcf	-0.124405205
103	0xb3	-0.19549389
104	0xb4	-0.19295502
105	0x35	0.13456073
106	0xab	-0.21580495
107	0x0c	0.03046658
108	0x15	0.053316515
109	0xf2	-0.035544343
110	0x39	0.14471626
111	0x60	0.24373265
112	0xb8	-0.18279949
113	0x66	0.25896594
114	0xde	-0.08632198
115	0x0a	0.025388818
116	0xbb	-0.17518283
117	0x06	0.01523329
118	0x05	0.012694409
119	0xc7	-0.14471626
120	0x2b	0.10917191
121	0x3c	0.1523329
122	0xe3	-0.07362757
123	0x0f	0.038083225
124	0xcc	-0.13202184
125	0xcd	-0.12948297
126	0xca	-0.13709961
127	0xf1	-0.038083225
128	0x2b	0.10917191
129	0xf2	-0.035544343
130	0x55	0.21580495
131	0x04	0.010155527
132	0x47	0.1802606
133	0x8e	-0.28943253
134	0xdd	-0.08886086
135	0xdc	-0.091399744
136	0xd3	-0.11424968
137	0xe7	-0.06347204
138	0x39	0.14471626
139	0xee	-0.045699872
140	0x17	0.05839428
141	0x21	0.0837831
142	0xee	-0.045699872
143	0xca	-0.13709961
144	0x5b	0.23103824
145	0xe7	-0.06347204
146	0x74	0.29451028
147	0xaf	-0.20564942
148	0xc2	-0.15741067
149	0xd7	-0.10409415
150	0x2c	0.111710794
151	0x60	0.24373265
152	0x41	0.1650273
153	0x2d	0.11424968
154	0x1e	0.07616645
155	0xcc	-0.13202184
156	0xbb	-0.17518283
157	0xcc	-0.13202184
158	0x0a	0.025388818
159	0xbd	-0.17010507
160	0x1a	0.06601092
161	0x3d	0.15487179
162	0x38	0.14217737
163	0x01	0.0025388817
164	0x3b	0.14979403
165	0xc4	-0.1523329
166	0x11	0.04316099
167	0x24	0.091399744
168	0xae	-0.2081883
169	0x00	0.0
170	0xa5	-0.23103824
171	0x13	0.048238754
172	0xa2	-0.23865488
173	0x01	0.0025388817
174	0x16	0.055855397
175	0xdd	-0.08886086
176	0x08	0.020311054
177	0xfa	-0.01523329
178	0xce	-0.12694408
179	0xbc	-0.17264396
180	0x19	0.06347204
181	0xca	-0.13709961
182	0x36	0.13709961
183	0x05	0.012694409
184	0xb6	-0.18787725
185	0xdf	-0.0837831
186	0xb1	-0.20057166
187	0xe6	-0.06601092
188	0xdd	-0.08886086
189	0x0c	0.03046658
190	0xb7	-0.18533836
191	0x60	0.24373265
192	0xcb	-0.13456073
193	0x31	0.124405205
194	0x60	0.24373265
195	0x52	0.2081883
196	0x7f	0.32243797
197	0x38	0.14217737
198	0x04	0.010155527
199	0x10	0.040622108
200	0x37	0.1396385
201	0xd9	-0.09901639
202	0xbb	-0.17518283
203	0xbf	-0.1650273
204	0xce	-0.12694408
205	0xd5	-0.10917191
206	0xe6	-0.06601092
207	0xb7	-0.18533836
208	0x43	0.17010507
209	0xd8	-0.10155527
210	0xd3	-0.11424968
211	0x12	0.045699872
212	0x3c	0.1523329
213	0xe5	-0.068549804
214	0x4b	0.19041613
215	0xe1	-0.07870533
216	0x98	-0.2640437
217	0xd7	-0.10409415
218	0x04	0.010155527
219	0x0c	0.03046658
220	0x25	0.09393863
221	0xb8	-0.18279949
222	0x11	0.04316099
223	0x2e	0.11678856
224	0xf0	-0.040622108
225	0xa9	-0.22088271
226	0x18	0.06093316
227	0x13	0.048238754
228	0xc5	-0.14979403
229	0xd5	-0.10917191
230	0xb4	-0.19295502
231	0xbc	-0.17264396
232	0x49	0.18533836
233	0x3b	0.14979403
234	0x3f	0.15994956
235	0xab	-0.21580495
236	0x24	0.091399744
237	0xeb	-0.053316515
238	0xc0	-0.16248843
239	0xdd	-0.08886086
240	0xe2	-0.07616645
241	0x07	0.017772172
242	0xe0	-0.081244215
243	0x03	0.007616645
244	0xef	-0.04316099
245	0x40	0.16248843
246	0x44	0.17264396
247	0xa5	-0.23103824
248	0x27	0.09901639
249	0x5e	0.23865488
250	0x0a	0.025388818
251	0xf7	-0.022849936
252	0x16	0.055855397
253	0x15	0.053316515
254	0x37	0.1396385
255	0xbd	-0.17010507

dense_2/MatMul_bias f4 [100]
0	0xbcda8d7c	-0.026678793
1	0xbce883a3	-0.028383082
2	0x3b6e3e74	0.0036353143
3	0x3be7af00	0.007070422
4	0xbc84bdaa	-0.01620372
5	0xbc8eb20b	-0.017418882
6	0x3b8da434	0.004322553
7	0xbd6d535d	-0.05794083
8	0x3d60880e	0.05481725
9	0x3c0e0cca	0.008670041
10	0x3db5eaa3	0.08882644
11	0xbd0095d9	-0.031392906
12	0xbc6a65d8	-0.014306508
13	0xbc184c4a	-0.0092955325
14	0xbdbc7e94	-0.0920383
15	0xbd9aca19	-0.07558078
16	0x3c14c582	0.009080293
17	0xbd3cde8c	-0.046110675
18	0x3bbe1c50	0.005801715
19	0x00000000	0.0
20	0xbd300dfb	-0.042982083
21	0xbd5be752	-0.0536874
22	0xbce73343	-0.028222686
23	0xbc0b30d3	-0.008495527
24	0xbd0cb3f6	-0.03435131
25	0xbda88e43	-0.08230259
26	0xbd1026ac	-0.03519313
27	0x3c88c845	0.016697058
28	0x3d5a52e4	0.053301707
29	0xbca684fa	-0.02032708
30	0xbcb3372d	-0.021876896
31	0xbbdabd7d	-0.006675421
32	0xbc8f385c	-0.017482929
33	0xbd7ce500	-0.06174183
34	0x3d2ce283	0.042208206
35	0xbcaa6657	-0.020800753
36	0xbd36250c	-0.044468924
37	0x3ce32f02	0.027732376
38	0xbc8bf737	-0.017085655
39	0xbd8238f8	-0.06358522
40	0xbc08b337	-0.008343509
41	0x3d72f89b	0.05931912
42	0x3ba43c39	0.005012062
43	0xbd648bb2	-0.055797286
44	0xbc103e50	-0.008803919
45	0xbce1d375	-0.02756665
46	0x3d2c0bab	0.042003315
47	0xbd407529	-0.046986733
48	0xbca112cc	-0.019662283
49	0xbd6f3285	-0.05839779
50	0xbc083c6a	-0.008315185
51	0xbd010375	-0.031497438
52	0xbc646284	-0.013939504
53	0xbc0c23c8	-0.008553453
54	0xbd170a55	-0.036875088
55	0xbd23de84	-0.04000713
56	0xbc828024	-0.015930243
57	0xbcdb1640	-0.026744008
58	0xbbd984f4	-0.0066381637
59	0x3d0c7e25	0.03429999
60	0x3d0f5c87	0.03500035
61	0x3d3cf66f	0.046133455
62	0xbd4dfa29	-0.0502874
63	0x3c287439	0.010281616
64	0xbd220afb	-0.039561253
65	0x00000000	0.0
66	0xbce4836f	-0.027894704
67	0xbc4de62d	-0.012567085
68	0xbd683842	-0.056694277
69	0xbd7b6023	-0.06137098
70	0xba016226	-0.0004935585
71	0xbc20272f	-0.009774967
72	0xbbde1998	-0.0067779534
73	0x00000000	0.0
74	0xbd0652e0	-0.03279388
75	0xbcebe45d	-0.028795416
76	0xbce0c738	-0.027438745
77	0xbcabdea4	-0.020980187
78	0xbb8ffc68	-0.004394103
79	0xbb3b522f	-0.002858292
80	0xbd01f14a	-0.03172425
81	0xbd352222	-0.044222005
82	0xbcf1adf6	-0.029501896
83	0xbc7716b9	-0.015081101
84	0xbc96dbb4	-0.01841531
85	0x3d9f8b29	0.077902146
86	0xbd5b061b	-0.05347262
87	0x3d00095a	0.03125892
88	0x3bc1877e	0.0059060445
89	0xbc690dbb	-0.014224465
90	0x3ceb3239	0.028710471
91	0xbd5410be	-0.05177378
92	0xbbadbe18	-0.005302202
93	0xbcd1dab1	-0.025616976
94	0xbc63810c	-0.013885748
95	0xbc7bdaab	-0.015371959
96	0xbcf869a5	-0.030323813
97	0xbdbebe78	-0.09313673
98	0x3b906f89	0.0044078273
99	0xbdbde87b	-0.09272858

dense_2/kernel/transpose i1 [100, 100] scale=0.002563822 zero_point=0
0	0xc2	-0.15895697
1	0xed	-0.04871262
2	0xe7	-0.06409555
3	0x11	0.043584976
4	0xd5	-0.11024435
5	0x06	0.0153829325
6	0xfc	-0.010255288
7	0x08	0.020510577
8	0x3e	0.15895697
9	0xe2	-0.07691466
10	0x35	0.13588257
11	0xe3	-0.07435084
12	0xea	-0.056404084
13	0x1f	0.07947849
14	0x2b	0.11024435
15	0x00	0.0
16	0xcd	-0.13075493
17	0xd1	-0.12049964
18	0x20	0.08204231
19	0x06	0.0153829325
20	0xcf	-0.12562728
21	0xff	-0.002563822
22	0x05	0.01281911
23	0xfa	-0.0153829325
24	0x10	0.041021153
25	0xe9	-0.058967907
26	0x08	0.020510577
27	0x05	0.01281911
28	0x17	0.058967907
29	0x2d	0.115371995
30	0xcf	-0.12562728
31	0xe8	-0.06153173
32	0xeb	-0.053840265
33	0xc0	-0.16408461
34	0x1e	0.07691466
35	0x04	0.010255288
36	0xc0	-0.16408461
37	0xe4	-0.071787015
38	0xce	-0.1281911
39	0xba	-0.17946754
40	0x19	0.06409555
41	0x0f	0.03845733
42	0x2a	0.10768053
43	0x24	0.0922976
44	0x1e	0.07691466
45	0xed	-0.04871262
46	0x31	0.12562728
47	0xd2	-0.117935814
48	0xb0	-0.20510577
49	0xe5	-0.069223195
50	0x1d	0.07435084
51	0xc6	-0.14870168
52	0xe6	-0.066659376
53	0x39	0.14613786
54	0xc2	-0.15895697
55	0xf8	-0.020510577
56	0xfa	-0.0153829325
57	0xd5	-0.11024435
58	0x2b	0.11024435
59	0xd6	-0.10768053
60	0xc4	-0.15382932
61	0x24	0.0922976
62	0x00	0.0
63	0xc4	-0.15382932
64	0xe8	-0.06153173
65	0xcc	-0.13331875
66	0xe5	-0.069223195
67	0xe3	-0.07435084
68	0x06	0.0153829325
69	0xd3	-0.115371995
70	0x16	0.056404084
71	0xf3	-0.033329688
72	0xd9	-0.099989064
73	0xdc	-0.0922976
74	0x2b	0.11024435
75	0xe8	-0.06153173
76	0xec	-0.05127644
77	0xf8	-0.020510577
78	0x27	0.099989064
79	0xf2	-0.035893507
80	0xd7	-0.1051167
81	0xb4	-0.19485047
82	0xeb	-0.053840265
83	0xfa	-0.0153829325
84	0xf9	-0.017946754
85	0xe4	-0.071787015
86	0xef	-0.043584976
87	0xe4	-0.071787015
88	0xf7	-0.0230744
89	0xfa	-0.0153829325
90	0x1e	0.07691466
91	0x11	0.043584976
92	0x30	0.12306346
93	0x10	0.041021153
94	0xe2	-0.07691466
95	0x2d	0.115371995
96	0xb7	-0.18715902
97	0xdf	-0.084606126
98	0x37	0.14101021
99	0xe5	-0.069223195
100	0x49	0.18715902
101	0xbc	-0.1743399
102	0xe9	-0.058967907
103	0xb8	-0.1845952
104	0xf4	-0.030765865
105	0x31	0.12562728
106	0x32	0.1281911
107	0xf2	-0.035893507
108	0x03	0.0076914662
109	0xbf	-0.16664843
110	0x0f	0.03845733
111	0xc1	-0.1615208
112	0xd1	-0.12049964
113	0x20	0.08204231
114	0x09	0.0230744
115	0xf9	-0.017946754
116	0x35	0.13588257
117	0x19	0.06409555
118	0x11	0.043584976
119	0x3b	0.1512655
120	0xed	-0.04871262
121	0x3c	0.15382932
122	0xf2	-0.035893507
123	0x2a	0.10768053
124	0xc9	-0.14101021
125	0xc9	-0.14101021
126	0xc6	-0.14870168
127	0x10	0.041021153
128	0xed	-0.04871262
129	0xfd	-0.0076914662
130	0x1a	0.066659376
131	0xc2	-0.15895697
132	0xcb	-0.13588257
133	0x41	0.16664843
134	0xc5	-0.1512655
135	0xfa	-0.0153829325
136	0xf7	-0.0230744
137	0x2d	0.115371995
138	0x16	0.056404084
139	0xcd	-0.13075493
140	0xfd	-0.0076914662
141	0x45	0.17690372
142	0xf5	-0.028202042
143	0xcf	-0.12562728
144	0xcb	-0.13588257
145	0x14	0.05127644
146	0x2f	0.12049964
147	0xf7	-0.0230744
148	0x0d	0.033329688
149	0x1b	0.069223195
150	0xe2	-0.07691466
151	0x01	0.002563822
152	0xe6	-0.066659376
153	0xe4	-0.071787015
154	0x12	0.0461488
155	0x14	0.05127644
156	0xd6	-0.10768053
157	0x3a	0.14870168
158	0x3b	0.1512655
159	0xf1	-0.03845733
160	0x0a	0.02563822
161	0x2b	0.11024435
162	0xdd	-0.08973377
163	0x2d	0.115371995
164	0xc8	-0.14357403
165	0x2d	0.115371995
166	0x2d	0.115371995
167	0x38	0.14357403
168	0x2d	0.115371995
169	0xec	-0.05127644
170	0x39	0.14613786
171	0x2c	0.11280817
172	0xcf	-0.12562728
173	0xdb	-0.09486142
174	0xe5	-0.069223195
175	0x07	0.017946754
176	0xe4	-0.071787015
177	0x30	0.12306346
178	0x2f	0.12049964
179	0x20	0.08204231
180	0xc9	-0.14101021
181	0xe5	-0.069223195
182	0xf5	-0.028202042
183	0xaf	-0.20766959
184	0xc9	-0.14101021
185	0xf9	-0.017946754
186	0x35	0.13588257
187	0xcb	-0.13588257
188	0xf4	-0.030765865
189	0x3d	0.15639314
190	0xe2	-0.07691466
191	0xc7	-0.14613786
192	0xce	-0.1281911
193	0xd6	-0.10768053
194	0x10	0.041021153
195	0x23	0.08973377
196	0xef	-0.043584976
197	0xec	-0.05127644
198	0x31	0.12562728
199	0xfc	-0.010255288
200	0xcb	-0.13588257
201	0x25	0.09486142
202	0xd0	-0.12306346
203	0xaf	-0.20766959
204	0x23	0.08973377
205	0x05	0.01281911
206	0x2c	0.11280817
207	0x28	0.10255288
208	0x06	0.0153829325
209	0x39	0.14613786
210	0x26	0.09742524
211	0x10	0.041021153
212	0xd3	-0.115371995
213	0xb5	-0.19228666
214	0x2f	0.12049964
215	0xbd	-0.17177609
216	0x22	0.08716995
217	0xd8	-0.10255288
218	0x01	0.002563822
219	0x32	0.1281911
220	0x0f	0.03845733
221	0x0b	0.028202042
222	0x16	0.056404084
223	0xee	-0.0461488
224	0xc9	-0.14101021
225	0xbf	-0.16664843
226	0x41	0.16664843
227	0x06	0.0153829325
228	0xcc	-0.13331875
229	0xd7	-0.1051167
230	0xde	-0.08716995
231	0xf3	-0.033329688
232	0x1f	0.07947849
233	0x1b	0.069223195
234	0x3e	0.15895697
235	0x2d	0.115371995
236	0xfe	-0.005127644
237	0xdd	-0.08973377
238	0x14	0.05127644
239	0xe0	-0.08204231
240	0xd2	-0.117935814
241	0xca	-0.13844639
242	0x17	0.058967907
243	0xde	-0.08716995
244	0xd5	-0.11024435
245	0xfd	-0.0076914662
246	0x2f	0.12049964
247	0xbd	-0.17177609
248	0x26	0.09742524
249	0xc4	-0.15382932
250	0x30	0.12306346
251	0xeb	-0.053840265
252	0x00	0.0
253	0xc0	-0.16408461
254	0xc3	-0.15639314
255	0x27	0.099989064

dense_3/MatMul_bias f4 [50]
0	0xbda63eda	-0.08117457
1	0xbd133b46	-0.0359452
2	0xbbf31bd0	-0.007419087
3	0xbd5726ec	-0.052527353
4	0xbc872df7	-0.01650141
5	0xbc2bd863	-0.010488602
6	0xbd63c3df	-0.05560672
7	0xbd7bc57c	-0.061467633
8	0x3d9a1761	0.075239904
9	0xbcb397b8	-0.021922931
10	0xbc155a88	-0.009115823
11	0xbcc665d1	-0.024218472
12	0xbcd19ef4	-0.02558849
13	0xbcbddd4b	-0.02317681
14	0xbd1c66eb	-0.038184088
15	0xbd132aa7	-0.03592935
16	0xbce16726	-0.027515005
17	0xbcfd63f7	-0.030931456
18	0xbbc87e97	-0.0061186063
19	0xbd06132e	-0.032733135
20	0xbdabc2d5	-0.08386771
21	0xbd6375a4	-0.055532113
22	0xbd329d76	-0.043607198
23	0xbc49a637	-0.012307695
24	0xbbb163c4	-0.0054135043
25	0xbcc01757	-0.02344863
26	0xbc68312d	-0.014171881
27	0xbdb1e676	-0.08686535
28	0xbd9c2e1d	-0.07625983
29	0x3cb62a1a	0.022236872
30	0xbc40a4e3	-0.011758062
31	0xbd9012db	-0.070348464
32	0x3d8d532a	0.06900628
33	0xbc18926a	-0.009312252
34	0xbd223f0d	-0.03961091
35	0xbc4806aa	-0.01220862
36	0x3ccb87a6	0.024844956
37	0x3d43ac9e	0.047772042
38	0xbd04226c	-0.03225939
39	0xbd632695	-0.055456717
40	0xbd45ba8e	-0.048273616
41	0xbcce6de3	-0.025198882
42	0xbd837ba9	-0.06420071
43	0xbd106053	-0.035248112
44	0xbcf64e2c	-0.030066572
45	0xbca207a7	-0.01977904
46	0x3c8b060c	0.016970657
47	0x3cdf7bf6	0.027280789
48	0x3bac3fcd	0.005256629
49	0xbce608b6	-0.028080326

dense_3/kernel/transpose i1 [50, 100] scale=0.0026842828 zero_point=0
0	0x21	0.08858133
1	0x17	0.061738506
2	0x40	0.1717941
3	0x00	0.0
4	0xcc	-0.13958271
5	0xdb	-0.09931847
6	0xd5	-0.11542416
7	0x2f	0.12616129
8	0xd7	-0.110055596
9	0xf7	-0.024158545
10	0xe2	-0.08052848
11	0xfe	-0.0053685657
12	0x21	0.08858133
13	0xdc	-0.09663418
14	0xe4	-0.07515992
15	0xf5	-0.029527111
16	0x47	0.19058408
17	0xdf	-0.08858133
18	0x2c	0.118108444
19	0xd0	-0.12884557
20	0x00	0.0
21	0x0f	0.04026424
22	0xe8	-0.064422786
23	0xfd	-0.008052848
24	0x2b	0.11542416
25	0x37	0.14763555
26	0x3b	0.15837269
27	0x03	0.008052848
28	0xaf	-0.21742691
29	0x43	0.17984696
30	0x0a	0.026842829
31	0xfa	-0.016105697
32	0x26	0.10200275
33	0x3f	0.16910982
34	0x11	0.04563281
35	0x1c	0.07515992
36	0x49	0.19595265
37	0xcb	-0.14226699
38	0xfe	-0.0053685657
39	0x1f	0.08321277
40	0x12	0.04831709
41	0x29	0.110055596
42	0x22	0.09126562
43	0xf9	-0.01878998
44	0x4b	0.20132121
45	0xea	-0.059054222
46	0xbe	-0.17716266
47	0x42	0.17716266
48	0x1f	0.08321277
49	0xee	-0.04831709
50	0x00	0.0
51	0x3f	0.16910982
52	0x3b	0.15837269
53	0x2f	0.12616129
54	0xf2	-0.03757996
55	0x43	0.17984696
56	0xf5	-0.029527111
57	0x29	0.110055596
58	0xd3	-0.120792724
59	0xb8	-0.19326836
60	0xf3	-0.034895677
61	0xbd	-0.17984696
62	0x2a	0.112739876
63	0xd7	-0.110055596
64	0xc9	-0.14763555
65	0x2e	0.12347701
66	0xc6	-0.1556884
67	0xde	-0.09126562
68	0x2e	0.12347701
69	0xbe	-0.17716266
70	0xdf	-0.08858133
71	0x35	0.14226699
72	0xc6	-0.1556884
73	0xf3	-0.034895677
74	0x15	0.056369938
75	0x36	0.14495127
76	0x2f	0.12616129
77	0x08	0.021474263
78	0x0d	0.034895677
79	0x16	0.059054222
80	0xed	-0.051001374
81	0xd6	-0.112739876
82	0xc1	-0.16910982
83	0xc9	-0.14763555
84	0x0e	0.03757996
85	0xee	-0.04831709
86	0x43	0.17984696
87	0xf8	-0.021474263
88	0xfb	-0.013421414
89	0x2d	0.120792724
90	0xb5	-0.20132121
91	0xdf	-0.08858133
92	0x01	0.0026842828
93	0x40	0.1717941
94	0x3a	0.1556884
95	0x29	0.110055596
96	0x48	0.19326836
97	0x31	0.13152985
98	0x16	0.059054222
99	0xd2	-0.12347701
100	0xfd	-0.008052848
101	0x15	0.056369938
102	0xd8	-0.107371315
103	0x3c	0.16105697
104	0x31	0.13152985
105	0xce	-0.13421415
106	0xc5	-0.15837269
107	0x31	0.13152985
108	0x21	0.08858133
109	0xe5	-0.072475635
110	0xf2	-0.03757996
111	0x34	0.13958271
112	0x31	0.13152985
113	0xfd	-0.008052848
114	0xe2	-0.08052848
115	0x24	0.09663418
116	0x0e	0.03757996
117	0x28	0.107371315
118	0xea	-0.059054222
119	0xf2	-0.03757996
120	0x0b	0.029527111
121	0x0c	0.032211393
122	0xd7	-0.110055596
123	0xff	-0.0026842828
124	0xea	-0.059054222
125	0x19	0.067107074
126	0xc7	-0.15300412
127	0xda	-0.10200275
128	0x3d	0.16374125
129	0xc2	-0.16642554
130	0xe5	-0.072475635
131	0xfd	-0.008052848
132	0xf2	-0.03757996
133	0xab	-0.22816405
134	0xca	-0.14495127
135	0xbf	-0.17447838
136	0xb7	-0.19595265
137	0x2f	0.12616129
138	0x3d	0.16374125
139	0xf3	-0.034895677
140	0xc6	-0.1556884
141	0xec	-0.053685658
142	0x16	0.059054222
143	0x41	0.17447838
144	0x1d	0.0778442
145	0xe2	-0.08052848
146	0xc3	-0.16374125
147	0xab	-0.22816405
148	0x02	0.0053685657
149	0xe3	-0.0778442
150	0xf2	-0.03757996
151	0xfa	-0.016105697
152	0xef	-0.04563281
153	0xed	-0.051001374
154	0x0e	0.03757996
155	0xe7	-0.067107074
156	0x12	0.04831709
157	0x0e	0.03757996
158	0xf5	-0.029527111
159	0xeb	-0.056369938
160	0xc6	-0.1556884
161	0x3d	0.16374125
162	0xd4	-0.118108444
163	0x02	0.0053685657
164	0xc1	-0.16910982
165	0xb6	-0.19863693
166	0xb9	-0.19058408
167	0xfc	-0.010737131
168	0xd3	-0.120792724
169	0xec	-0.053685658
170	0x37	0.14763555
171	0xd9	-0.10468703
172	0x35	0.14226699
173	0xdc	-0.09663418
174	0xc6	-0.1556884
175	0x25	0.09931847
176	0x3f	0.16910982
177	0x25	0.09931847
178	0x45	0.18521552
179	0xeb	-0.056369938
180	0x12	0.04831709
181	0x07	0.01878998
182	0xf1	-0.04026424
183	0xb1	-0.21205835
184	0x1f	0.08321277
185	0xbe	-0.17716266
186	0xf3	-0.034895677
187	0xfe	-0.0053685657
188	0x26	0.10200275
189	0x10	0.042948525
190	0xe2	-0.08052848
191	0xfd	-0.008052848
192	0x14	0.053685658
193	0x23	0.0939499
194	0xc4	-0.16105697
195	0x0e	0.03757996
196	0x39	0.15300412
197	0xd3	-0.120792724
198	0xd7	-0.110055596
199	0x39	0.15300412
200	0xcd	-0.13689843
201	0xab	-0.22816405
202	0x10	0.042948525
203	0x31	0.13152985
204	0xc0	-0.1717941
205	0xbd	-0.17984696
206	0x22	0.09126562
207	0x0a	0.026842829
208	0xb2	-0.20937406
209	0xd6	-0.112739876
210	0x22	0.09126562
211	0x12	0.04831709
212	0x3e	0.16642554
213	0x40	0.1717941
214	0x13	0.051001374
215	0x46	0.1878998
216	0x10	0.042948525
217	0x04	0.010737131
218	0xf1	-0.04026424
219	0xb6	-0.19863693
220	0xe3	-0.0778442
221	0xb5	-0.20132121
222	0x29	0.110055596
223	0xf1	-0.04026424
224	0x3a	0.1556884
225	0x0e	0.03757996
226	0xf9	-0.01878998
227	0x2f	0.12616129
228	0x28	0.107371315
229	0xe1	-0.08321277
230	0xcc	-0.13958271
231	0x18	0.064422786
232	0xf6	-0.026842829
233	0x23	0.0939499
234	0xd8	-0.107371315
235	0xbf	-0.17447838
236	0x45	0.18521552
237	0xe0	-0.08589705
238	0xcf	-0.13152985
239	0x0a	0.026842829
240	0xb3	-0.20668977
241	0xb8	-0.19326836
242	0x2f	0.12616129
243	0xe5	-0.072475635
244	0xf1	-0.04026424
245	0xc4	-0.16105697
246	0xd4	-0.118108444
247	0x01	0.0026842828
248	0xec	-0.053685658
249	0xca	-0.14495127
250	0xed	-0.051001374
251	0x2d	0.120792724
252	0x25	0.09931847
253	0x28	0.107371315
254	0x26	0.10200275
255	0x45	0.18521552

dense_4/MatMul_bias f4 [20]
0	0xbcb642fb	-0.022248736
1	0xbdbb5a03	-0.09148028
2	0xbda31e22	-0.07964732
3	0xbdac1180	-0.08401775
4	0x3d12ade2	0.03581036
5	0x3dc80eda	0.09768458
6	0x3df18bec	0.11794266
7	0xbce43557	-0.027857466
8	0xbda108e1	-0.07863022
9	0xbe0c7877	-0.13717829
10	0x3d196123	0.037446152
11	0xbdbab2ce	-0.091161355
12	0xbe067587	-0.1313077
13	0xbe26010c	-0.16211337
14	0xbd9c1d11	-0.076227315
15	0xbd4b058a	-0.04956583
16	0xb8c74934	-9.5026946e-05
17	0xbc9304d5	-0.01794664
18	0xbdb68689	-0.08912379
19	0x3d73d2c0	0.05952716

dense_4/kernel/transpose f4 [20, 50]
0	0xbe47520c	-0.19464892
1	0xbe84abba	-0.25912267
2	0x3deb40b2	0.11486949
3	0x3e6d66b3	0.23183708
4	0x3e856ee6	0.2606117
5	0x3df37a02	0.118885055
6	0x3ccd4368	0.025056556
7	0xbd6bbfb9	-0.057555888
8	0x3e5a9343	0.21345238
9	0xbe61bc16	-0.22044405
10	0x3b75c246	0.003749983
11	0x3e8bae25	0.272813
12	0x3e8854cc	0.26627195
13	0xbdecd5d0	-0.11564219
14	0xbc769094	-0.015049119
15	0x3e7432f8	0.23847568
16	0xbe86b5ed	-0.26310673
17	0x3d2d83b3	0.042361926
18	0x3e820b76	0.2539937
19	0x3e80dfb4	0.25170672
20	0x3e5839e6	0.21115837
21	0x3da9b27e	0.08285998
22	0x3e8aa777	0.2708089
23	0xbdf96331	-0.121771224
24	0x3c872a5d	0.016499693
25	0xbbaf2260	-0.005344674
26	0x3e4e6e47	0.20159255
27	0x3d337fa3	0.043822896
28	0xbc16a03e	-0.009193478
29	0x3d8c4f5d	0.06851075
30	0xbc2e5e93	-0.010642665
31	0xbd86f85f	-0.06590342
32	0xbd9ffbc1	-0.0781169
33	0x3e2611e7	0.16217767
34	0xbe07b89f	-0.13254021
35	0xbe677a9a	-0.22605363
36	0x3e02724d	0.12738915
37	0xbe2f664b	-0.17128865
38	0x3e828527	0.25492212
39	0xbe2a5e54	-0.16637546
40	0xbe810d0f	-0.25205275
41	0x3e83ab6c	0.25716722
42	0xbe507c93	-0.20360021
43	0x3d167b5d	0.036738742
44	0xbd5e25fc	-0.054235443
45	0xbd8a1c58	-0.067436874
46	0x3e047350	0.12934613
47	0x3dc6c2e7	0.097051434
48	0xbd70d210	-0.05879408
49	0x3de165ae	0.11005722
50	0xbe7a4e06	-0.24443826
51	0x3d486dc5	0.04893281
52	0xbdf6a269	-0.12042696
53	0xbe0de32d	-0.13856192
54	0x3d3977a9	0.045280132
55	0x3d865098	0.06558341
56	0xbdb1c2e8	-0.086797535
57	0x3e1e0025	0.15429743
58	0xbdbf0ead	-0.09328971
59	0x3e5f928e	0.2183325
60	0xbe90c0b7	-0.2827203
61	0xbde83c52	-0.1133963
62	0x3d36d474	0.044636205
63	0xbe48b6e0	-0.19601011
64	0xbe7aa166	-0.24475631
65	0xbe048154	-0.1293996
66	0xbe77a9ac	-0.24185818
67	0x3d01ea0e	0.031717353
68	0x3da104a0	0.0786221
69	0xbe502622	-0.20327047
70	0xbdeab237	-0.11459773
71	0x3d1490a7	0.036270764
72	0xbd48bf6c	-0.04901068
73	0xbe687c7f	-0.22703741
74	0xbd0d787e	-0.03453874
75	0xbe9959b7	-0.2995126
76	0xbd3a6bac	-0.04551284
77	0xbe47d199	-0.19513549
78	0xbe84afb0	-0.2591529
79	0xbe2994b2	-0.16560629
80	0x3e380b25	0.17973001
81	0xbe78e5c9	-0.24306406
82	0x3e46906d	0.19391032
83	0x3c34c0b6	0.011032274
84	0x3e4f3674	0.20235616
85	0xbdfcf650	-0.12351668
86	0x3dd280a6	0.10278444
87	0x3e0fcfb2	0.14044073
88	0xbdcad4ff	-0.09903907
89	0xbe003908	-0.12521756
90	0x3d4f3801	0.05059052
91	0xbd5341c9	-0.05157641
92	0x3e13adca	0.14421764
93	0xbbaff43a	-0.0053696902
94	0x3dc4e87c	0.096146554
95	0x3e53b3e3	0.2067409
96	0xbd0f8c81	-0.035046104
97	0x3e177a05	0.1479264
98	0xbd8443b2	-0.06458224
99	0x3e3595e1	0.17732956
100	0xbde8f909	-0.11375625
101	0xbcc38960	-0.023869216
102	0xbc2fc1d8	-0.010727368
103	0xbe24cc74	-0.16093618
104	0x3e3bdfca	0.18347088
105	0x3e89c56c	0.26908433
106	0x3e33d018	0.1755985
107	0xbc9f2b58	-0.019429848
108	0xbe90271e	-0.28154844
109	0x3e326834	0.17422563
110	0xbe63b172	-0.22235659
111	0x3e8f665e	0.28007787
112	0x3e2a7759	0.1664709
113	0x3e83ae44	0.25718892
114	0xbe091969	-0.133886
115	0xbe12244c	-0.14271659
116	0x3e170e87	0.14751635
117	0x3e3c0498	0.18361127
118	0xbe191024	-0.14947563
119	0xbd815d26	-0.06316595
120	0xbdfca284	-0.12335685
121	0xbd81362e	-0.06309162
122	0x3d4a02ea	0.049319185
123	0xbe1177ad	-0.14205809
124	0xbc3e8570	-0.011628494
125	0x3def92bc	0.11697909
126	0xbafaaabe	-0.0019124371
127	0x3e76c05a	0.24096814
128	0xbe05ec48	-0.13078415
129	0xbd9ce482	-0.07660772
130	0x3e062e58	0.13103616
131	0xbe1a2103	-0.15051655
132	0xbe29fd4b	-0.1660053
133	0x3cf61215	0.030037919
134	0xbe2a1e48	-0.16613114
135	0xbe2ffdbe	-0.17186639
136	0xbe29f1eb	-0.1659619
137	0xbe79d487	-0.24397479
138	0xbd96c8b5	-0.073625006
139	0x3d0bde68	0.03414765
140	0xbe6cf5d5	-0.23140652
141	0xbd09bb90	-0.03362614
142	0xbd3194b6	-0.043354712
143	0x3ebcfcba	0.36911565
144	0xbe18ed0b	-0.14934175
145	0x3d813888	0.063096106
146	0xbdec3a9c	-0.11534616
147	0x3e94efa2	0.29089075
148	0x3e2acd98	0.1667999
149	0x3e095c10	0.13414025
150	0x3d092bec	0.033489153
151	0xbcf81b9c	-0.030286603
152	0xbda284ed	-0.0793551
153	0x3e0cfdcd	0.13768692
154	0xbc78e156	-0.015190443
155	0xbe68e31d	-0.22742887
156	0x3cf2697c	0.029591314
157	0xbca3b41a	-0.01998334
158	0xbda26d71	-0.079310305
159	0x3e6a2dad	0.22868986
160	0xbe0bc414	-0.13649017
161	0xbded2c55	-0.11580721
162	0x3e168b12	0.14701489
163	0xbe468ad7	-0.193889
164	0x3daf4f49	0.08560044
165	0xbe8b958d	-0.27262536
166	0xbe85b3d8	-0.26113772
167	0x3d922463	0.071358465
168	0x3e8fa2e8	0.28053975
169	0xbd96fbbd	-0.07372234
170	0x3e804ee1	0.2506018
171	0x3def77e3	0.116927885
172	0x3da0cde1	0.07851768
173	0xbe469e4d	-0.19396324
174	0xbe84f1b6	-0.2596566
175	0x3e57193b	0.21005718
176	0x3df3d1b4	0.11905232
177	0x3e3080ca	0.17236629
178	0x3e493705	0.19649895
179	0xbe8377e5	-0.2567741
180	0xbe1af428	-0.151322
181	0x3e549746	0.20760831
182	0x3d8364ff	0.06415748
183	0x3e2b0a22	0.16703084
184	0xbd569689	-0.052389655
185	0xbe660cfe	-0.22465894
186	0xbe2e0e0a	-0.16997543
187	0x3d1190f0	0.035538614
188	0x3e1de0d8	0.15417802
189	0xbe6f5c4d	-0.23375054
190	0x3e4e2eec	0.20135087
191	0xbddb40c6	-0.10705714
192	0xbe048cf1	-0.1294439
193	0x3e0a1b37	0.13486944
194	0xbc0df83e	-0.008665143
195	0x3e16b5a8	0.14717734
196	0xbceb16d8	-0.028697416
197	0xbd3698b5	-0.044579227
198	0xbe85c74e	-0.2612862
199	0x3d22cb43	0.039744627
200	0x3cb114ee	0.021616425
201	0x3c9b7f03	0.018981462
202	0x3e6de1af	0.23230623
203	0xbe459a34	-0.19297105
204	0x3dfc1481	0.12308598
205	0xbe8f7605	-0.2801973
206	0x3e7ebf8e	0.2487776
207	0x3d4a58ed	0.049401212
208	0x3e5a601b	0.21325724
209	0xbe2e9973	-0.17050724
210	0xbd4418b1	-0.04787511
211	0xbe515538	-0.20442665
212	0x3e8d3cba	0.27585393
213	0x3d765753	0.060141873
214	0xbdc817ba	-0.097701505
215	0x3de3e735	0.111280836
216	0xbe126415	-0.14295991
217	0xbdfebabc	-0.124379605
218	0x3e678a6e	0.226114
219	0xbe2fd14d	-0.17169686
220	0x3e7b3a89	0.24534048
221	0xbd9dafc8	-0.07699543
222	0x3e71b8bf	0.23605631
223	0xbe7537b3	-0.23947029
224	0x3d9d516b	0.07681545
225	0xbe338674	-0.17531759
226	0xbe800dca	-0.2501052
227	0xbd8c5e8b	-0.0685397
228	0xbd8d1c4b	-0.06890162
229	0xbe771c48	-0.24131882
230	0x3e1e6b8a	0.1547071
231	0xbe912f59	-0.28356436
232	0xbe73f89f	-0.2382531
233	0xbe84c26a	-0.25929576
234	0xbde5f948	-0.11229187
235	0xbe42b2ba	-0.19013491
236	0x3e44d037	0.19220053
237	0xbdd2b7e6	-0.10288982
238	0xbe1f84dc	-0.15578026
239	0xbdae8cdf	-0.08522963
240	0x3e895fb2	0.26830822
241	0x3e0d36b5	0.137904
242	0xbe13b7f2	-0.14425638
243	0x3dafc4b9	0.08582444
244	0x3de81fd6	0.11334197
245	0x3e6e44e3	0.23268466
246	0x3e4da472	0.20082262
247	0xbdd81fff	-0.10552978
248	0x3c2352a2	0.009968432
249	0xbe40de5b	-0.18834822
250	0x3e2e14e9	0.17000164
251	0xbd9cbd98	-0.0765335
252	0x3d83967a	0.064251855
253	0x3e64c62a	0.22341219
254	0xbe64ef27	-0.22356854
255	0xbcf23630	-0.029566854

dense_5/MatMul_bias f4 [4]
0	0x3d9fb257	0.077976875
1	0xbd5d5c75	-0.054043252
2	0xbdcf90ff	-0.10135078
3	0xbced33e1	-0.028955402

dense_5/kernel/transpose f4 [4, 20]
0	0xbf05253e	-0.5200995
1	0x3e2623df	0.16224621
2	0xbd33fead	-0.04394405
3	0xbdb56871	-0.08857811
4	0xbefdb643	-0.49553117
5	0x3ea34317	0.31887123
6	0x3e6592f4	0.2241934
7	0xbdc85c2e	-0.09783207
8	0xbedb3088	-0.42810464
9	0xbebfee47	-0.3748648
10	0xbf28648b	-0.65778416
11	0x3eabd582	0.3356133
12	0xbe1fd887	-0.15609942
13	0x3e9fb05c	0.3118924
14	0x3e0a5f70	0.13512969
15	0xbeb538f0	-0.35395002
16	0x3eb20f6e	0.34777397
17	0xbe4b50fd	-0.19855113
18	0xbee3233b	-0.44362816
19	0x3db9acb8	0.090661466
20	0x3eaf1cb9	0.342016
21	0x3eafacdf	0.34311578
22	0xbe99e9d5	-0.30061212
23	0xbe20d44d	-0.15705986
24	0xbea1c2b5	-0.31593862
25	0x3e393520	0.18086672
26	0xbed2b9b6	-0.4115731
27	0x3e441150	0.19147229
28	0x3ed682eb	0.41896757
29	0xbbbd56f5	-0.0057781884
30	0xbd498eb0	-0.049208343
31	0xbe644e96	-0.22295603
32	0x3e92b2d3	0.28652057
33	0xbed3bc61	-0.4135466
34	0x3e637738	0.22213447
35	0xbe6a324c	-0.22870749
36	0xbda80af0	-0.08205211
37	0x3dd8e7e2	0.10591103
38	0x3eb0c1c8	0.34522843
39	0xbe83ff43	-0.25780687
40	0x3e50761b	0.20357554
41	0x3e98ebb4	0.29867327
42	0xbcbc0ada	-0.022954393
43	0x3e8b8155	0.2724711
44	0xbee147a8	-0.43999982
45	0xbea22f49	-0.316767
46	0x3ea66ed7	0.3250644
47	0xbda44ab5	-0.08022062
48	0x3ee3d5c1	0.4449902
49	0x3ef3abe2	0.47592074
50	0xbd1d983b	-0.038475256
51	0x3ed7ac8a	0.42123824
52	0x3eb05e21	0.34446815
53	0x3eced016	0.40393132
54	0x3e977fee	0.2958979
55	0x3deb6085	0.11493019
56	0xbe95c471	-0.29251435
57	0x3dc2078b	0.09474095
58	0x3ed7ff79	0.42187098
59	0xbe122c8a	-0.14274803
60	0x3eccd95c	0.40009582
61	0x3e18ab7c	0.14909166
62	0xbd479f23	-0.04873575
63	0xbdf819d2	-0.121143
64	0xbed99e1a	-0.42503434
65	0xbeb3bf9e	-0.3510713
66	0x3ee923a0	0.45534992
67	0xbea2c833	-0.31793365
68	0xbd6a4809	-0.057197604
69	0x3eb51012	0.35363823
70	0x3e5081f3	0.20362072
71	0xbc1f09ad	-0.009706897
72	0x3e4b7f73	0.19872837
73	0x3e95e523	0.2927638
74	0xbe868e6a	-0.26280528
75	0x3e815677	0.2526128
76	0x3e72658c	0.2367155
77	0x3ef16872	0.47149998
78	0x3ef51686	0.47868747
79	0x3df26bba	0.118369535
